…
UaM0DJuNkiCG"},"execution_count":null,"outputs":[]},{"cell_type":"code","source":["convnext_tiny = models.convnext_tiny().cuda()\n","convnext_tiny"],"metadata":{"colab":{"base_uri":"https://localhost:8080/"},"id":"vLUzveTfkiEj","executionInfo":{"status":"ok","timestamp":1655283827613,"user_tz":-540,"elapsed":800,"user":{"displayName":"김지수","userId":"13631015149564223907"}},"outputId":"19cfd167-7eba-4343-8d6e-52ddf3b4a19e"},"execution_count":133,"outputs":[{"output_type":"execute_result","data":{"text/plain":["ConvNeXt(\n","  (features): Sequential(\n","    (0): ConvNormActivation(\n","      (0): Conv2d(3, 96, kernel_size=(4, 4), stride=(4, 4))\n","      (1): LayerNorm2d((96,), eps=1e-06, elementwise_affine=True)\n","    )\n","    (1): Sequential(\n","      (0): CNBlock(\n","        (block): Sequential(\n","          (0): Conv2d(96, 96, kernel_size=(7, 7), stride=(1, 1), padding=(3, 3), groups=96)\n","          (1): Permute()\n","          (2): LayerNorm((96,), eps=1e-06, elementwise_affine=True)\n","          (3): Linear(in_features=96, out_features=384, bias=True)\n","          (4): GELU()\n","          (5): Linear(in_features=384, out_features=96, bias=True)\n","          (6): Permute()\n","        )\n","        (stochastic_depth): StochasticDepth(p=0.0, mode=row)\n","      )\n","      (1): CNBlock(\n","        (block): Sequential(\n","          (0): Conv2d(96, 96, kernel_size=(7, 7), stride=(1, 1), padding=(3, 3), groups=96)\n","          (1): Permute()\n","          (2): LayerNorm((96,), eps=1e-06, elementwise_affine=True)\n","          (3): Linear(in_features=96, out_features=384, bias=True)\n","          (4): GELU()\n","          (5): Linear(in_features=384, out_features=96, bias=True)\n","          (6): Permute()\n","        )\n","        (stochastic_depth): StochasticDepth(p=0.0058823529411764705, mode=row)\n","      )\n","      (2): CNBlock(\n","        (block): Sequential(\n","          (0): Conv2d(96, 96, kernel_size=(7, 7), stride=(1, 1), padding=(3, 3), groups=96)\n","          (1): Permute()\n","          (2): LayerNorm((96,), eps=1e-06, elementwise_affine=True)\n","          (3): Linear(in_features=96, out_features=384, bias=True)\n","          (4): GELU()\n","          (5): Linear(in_features=384, out_features=96, bias=True)\n","          (6): Permute()\n","        )\n","        (stochastic_depth): StochasticDepth(p=0.011764705882352941, mode=row)\n","      )\n","    )\n","    (2): Sequential(\n","      (0): LayerNorm2d((96,), eps=1e-06, elementwise_affine=True)\n","      (1): Conv2d(96, 192, kernel_size=(2, 2), stride=(2, 2))\n","    )\n","    (3): Sequential(\n","      (0): CNBlock(\n","        (block): Sequential(\n","          (0): Conv2d(192, 192, kernel_size=(7, 7), stride=(1, 1), padding=(3, 3), groups=192)\n","          (1): Permute()\n","          (2): LayerNorm((192,), eps=1e-06, elementwise_affine=True)\n","          (3): Linear(in_features=192, out_features=768, bias=True)\n","          (4): GELU()\n","          (5): Linear(in_features=768, out_features=192, bias=True)\n","          (6): Permute()\n","        )\n","        (stochastic_depth): StochasticDepth(p=0.017647058823529415, mode=row)\n","      )\n","      (1): CNBlock(\n","        (block): Sequential(\n","          (0): Conv2d(192, 192, kernel_size=(7, 7), stride=(1, 1), padding=(3, 3), groups=192)\n","          (1): Permute()\n","          (2): LayerNorm((192,), eps=1e-06, elementwise_affine=True)\n","          (3): Linear(in_features=192, out_features=768, bias=True)\n","          (4): GELU()\n","          (5): Linear(in_features=768, out_features=192, bias=True)\n","          (6): Permute()\n","        )\n","        (stochastic_depth): StochasticDepth(p=0.023529411764705882, mode=row)\n","      )\n","      (2): CNBlock(\n","        (block): Sequential(\n","          (0): Conv2d(192, 192, kernel_size=(7, 7), stride=(1, 1), padding=(3, 3), groups=192)\n","          (1): Permute()\n","          (2): LayerNorm((192,), eps=1e-06, elementwise_affine=True)\n","          (3): Linear(in_features=192, out_features=768, bias=True)\n","          (4): GELU()\n","          (5): Linear(in_features=768, out_features=192, bias=True)\n","          (6): Permute()\n","        )\n","        (stochastic_depth): StochasticDepth(p=0.029411764705882353, mode=row)\n","      )\n","    )\n","    (4): Sequential(\n","      (0): LayerNorm2d((192,), eps=1e-06, elementwise_affine=True)\n","      (1): Conv2d(192, 384, kernel_size=(2, 2), stride=(2, 2))\n","    )\n","    (5): Sequential(\n","      (0): CNBlock(\n","        (block): Sequential(\n","          (0): Conv2d(384, 384, kernel_size=(7, 7), stride=(1, 1), padding=(3, 3), groups=384)\n","          (1): Permute()\n","          (2): LayerNorm((384,), eps=1e-06, elementwise_affine=True)\n","          (3): Linear(in_features=384, out_features=1536, bias=True)\n","          (4): GELU()\n","          (5): Linear(in_features=1536, out_features=384, bias=True)\n","          (6): Permute()\n","        )\n","        (stochastic_depth): StochasticDepth(p=0.03529411764705883, mode=row)\n","      )\n","      (1): CNBlock(\n","        (block): Sequential(\n","          (0): Conv2d(384, 384, kernel_size=(7, 7), stride=(1, 1), padding=(3, 3), groups=384)\n","          (1): Permute()\n","          (2): LayerNorm((384,), eps=1e-06, elementwise_affine=True)\n","          (3): Linear(in_features=384, out_features=1536, bias=True)\n","          (4): GELU()\n","          (5): Linear(in_features=1536, out_features=384, bias=True)\n","          (6): Permute()\n","        )\n","        (stochastic_depth): StochasticDepth(p=0.0411764705882353, mode=row)\n","      )\n","      (2): CNBlock(\n","        (block): Sequential(\n","          (0): Conv2d(384, 384, kernel_size=(7, 7), stride=(1, 1), padding=(3, 3), groups=384)\n","          (1): Permute()\n","          (2): LayerNorm((384,), eps=1e-06, elementwise_affine=True)\n","          (3): Linear(in_features=384, out_features=1536, bias=True)\n","          (4): GELU()\n","          (5): Linear(in_features=1536, out_features=384, bias=True)\n","          (6): Permute()\n","        )\n","        (stochastic_depth): StochasticDepth(p=0.047058823529411764, mode=row)\n","      )\n","      (3): CNBlock(\n","        (block): Sequential(\n","          (0): Conv2d(384, 384, kernel_size=(7, 7), stride=(1, 1), padding=(3, 3), groups=384)\n","          (1): Permute()\n","          (2): LayerNorm((384,), eps=1e-06, elementwise_affine=True)\n","          (3): Linear(in_features=384, out_features=1536, bias=True)\n","          (4): GELU()\n","          (5): Linear(in_features=1536, out_features=384, bias=True)\n","          (6): Permute()\n","        )\n","        (stochastic_depth): StochasticDepth(p=0.052941176470588235, mode=row)\n","      )\n","      (4): CNBlock(\n","        (block): Sequential(\n","          (0): Conv2d(384, 384, kernel_size=(7, 7), stride=(1, 1), padding=(3, 3), groups=384)\n","          (1): Permute()\n","          (2): LayerNorm((384,), eps=1e-06, elementwise_affine=True)\n","          (3): Linear(in_features=384, out_features=1536, bias=True)\n","          (4): GELU()\n","          (5): Linear(in_features=1536, out_features=384, bias=True)\n","          (6): Permute()\n","        )\n","        (stochastic_depth): StochasticDepth(p=0.058823529411764705, mode=row)\n","      )\n","      (5): CNBlock(\n","        (block): Sequential(\n","          (0): Conv2d(384, 384, kernel_size=(7, 7), stride=(1, 1), padding=(3, 3), groups=384)\n","          (1): Permute()\n","          (2): LayerNorm((384,), eps=1e-06, elementwise_affine=True)\n","          (3): Linear(in_features=384, out_features=1536, bias=True)\n","          (4): GELU()\n","          (5): Linear(in_features=1536, out_features=384, bias=True)\n","          (6): Permute()\n","        )\n","        (stochastic_depth): StochasticDepth(p=0.06470588235294118, mode=row)\n","      )\n","      (6): CNBlock(\n","        (block): Sequential(\n","          (0): Conv2d(384, 384, kernel_size=(7, 7), stride=(1, 1), padding=(3, 3), groups=384)\n","          (1): Permute()\n","          (2): LayerNorm((384,), eps=1e-06, elementwise_affine=True)\n","          (3): Linear(in_features=384, out_features=1536, bias=True)\n","          (4): GELU()\n","          (5): Linear(in_features=1536, out_features=384, bias=True)\n","          (6): Permute()\n","        )\n","        (stochastic_depth): StochasticDepth(p=0.07058823529411766, mode=row)\n","      )\n","      (7): CNBlock(\n","        (block): Sequential(\n","          (0): Conv2d(384, 384, kernel_size=(7, 7), stride=(1, 1), padding=(3, 3), groups=384)\n","          (1): Permute()\n","          (2): LayerNorm((384,), eps=1e-06, elementwise_affine=True)\n","          (3): Linear(in_features=384, out_features=1536, bias=True)\n","          (4): GELU()\n","          (5): Linear(in_features=1536, out_features=384, bias=True)\n","          (6): Permute()\n","        )\n","        (stochastic_depth): StochasticDepth(p=0.07647058823529412, mode=row)\n","      )\n","      (8): CNBlock(\n","        (block): Sequential(\n","          (0): Conv2d(384, 384, kernel_size=(7, 7), stride=(1, 1), padding=(3, 3), groups=384)\n","          (1): Permute()\n","          (2): LayerNorm((384,), eps=1e-06, elementwise_affine=True)\n","          (3): Linear(in_features=384, out_features=1536, bias=True)\n","          (4): GELU()\n","          (5): Linear(in_features=1536, out_features=384, bias=True)\n","          (6): Permute()\n","        )\n","        (stochastic_depth): StochasticDepth(p=0.0823529411764706, mode=row)\n","      )\n","    )\n","    (6): Sequential(\n","      (0): LayerNorm2d((384,), eps=1e-06, elementwise_affine=True)\n","      (1): Conv2d(384, 768, kernel_size=(2, 2), stride=(2, 2))\n","    )\n","    (7): Sequential(\n","      (0): CNBlock(\n","        (block): Sequential(\n","          (0): Conv2d(768, 768, kernel_size=(7, 7), stride=(1, 1), padding=(3, 3), groups=768)\n","          (1): Permute()\n","          (2): LayerNorm((768,), eps=1e-06, elementwise_affine=True)\n","          (3): Linear(in_features=768, out_features=3072, bias=True)\n","          (4): GELU()\n","          (5): Linear(in_features=3072, out_features=768, bias=True)\n","          (6): Permute()\n","        )\n","        (stochastic_depth): StochasticDepth(p=0.08823529411764706, mode=row)\n","      )\n","      (1): CNBlock(\n","        (block): Sequential(\n","          (0): Conv2d(768, 768, kernel_size=(7, 7), stride=(1, 1), padding=(3, 3), groups=768)\n","          (1): Permute()\n","          (2): LayerNorm((768,), eps=1e-06, elementwise_affine=True)\n","          (3): Linear(in_features=768, out_features=3072, bias=True)\n","          (4): GELU()\n","          (5): Linear(in_features=3072, out_features=768, bias=True)\n","          (6): Permute()\n","        )\n","        (stochastic_depth): StochasticDepth(p=0.09411764705882353, mode=row)\n","      )\n","      (2): CNBlock(\n","        (block): Sequential(\n","          (0): Conv2d(768, 768, kernel_size=(7, 7), stride=(1, 1), padding=(3, 3), groups=768)\n","          (1): Permute()\n","          (2): LayerNorm((768,), eps=1e-06, elementwise_affine=True)\n","          (3): Linear(in_features=768, out_features=3072, bias=True)\n","          (4): GELU()\n","          (5): Linear(in_features=3072, out_features=768, bias=True)\n","          (6): Permute()\n","        )\n","        (stochastic_depth): StochasticDepth(p=0.1, mode=row)\n","      )\n","    )\n","  )\n","  (avgpool): AdaptiveAvgPool2d(output_size=1)\n","  (classifier): Sequential(\n","    (0): LayerNorm2d((768,), eps=1e-06, elementwise_affine=True)\n","    (1): Flatten(start_dim=1, end_dim=-1)\n","    (2): Linear(in_features=768, out_features=1000, bias=True)\n","  )\n",")"]},"metadata":{},"execution_count":133}]},{"cell_type":"code","source":[""],"metadata":{"id":"ZPUThZS3kiHY"},"execution_count":null,"outputs":[]},{"cell_type":"code","source":[""],"metadata":{"id":"-RfmbOmNkiMH"},"execution_count":null,"outputs":[]},{"cell_type":"code","source":[""],"metadata":{"id":"TAmPnyx8kiOx"},"execution_count":null
…
